EPII_CM55M_APP_S/app/scenario_app/ei_standalone_inferencing/ei-model/responding-to-your-voice.tflite (tflite, 9824 bytes, 2 tensors)

main_split_1_command_stream u1 [2520]
000000 43 4f 50 31 01 00 10 00 06 10 00 00 00 00 06 10
       67 79 80 49 1 0 16 0 6 16 0 0 0 0 6 16
000010 05 00 00 00 05 00 00 00 05 00 00 00 02 00 6e 02
       5 0 0 0 5 0 0 0 5 0 0 0 2 0 110 2
000020 30 01 00 00 30 40 00 00 c0 05 00 00 31 01 01 00
       48 1 0 0 48 64 0 0 192 5 0 0 49 1 1 0
000030 31 40 00 00 70 29 00 00 32 40 00 00 e0 00 00 00
       49 64 0 0 112 41 0 0 50 64 0 0 224 0 0 0
000040 10 00 00 00 0f 01 01 00 00 40 00 00 00 27 00 00
       16 0 0 0 15 1 1 0 0 64 0 0 0 39 0 0
000050 01 40 00 00 00 00 00 00 02 40 00 00 00 00 00 00
       1 64 0 0 0 0 0 0 2 64 0 0 0 0 0 0
000060 03 40 00 00 00 00 00 00 0b 01 2f 00 0c 01 2f 00
       3 64 0 0 0 0 0 0 11 1 47 0 12 1 47 0
000070 0a 01 0c 00 04 01 00 00 06 40 00 00 01 00 00 00
       10 1 12 0 4 1 0 0 6 64 0 0 1 0 0 0
000080 05 40 00 00 0d 00 00 00 04 40 00 00 01 00 00 00
       5 64 0 0 13 0 0 0 4 64 0 0 1 0 0 0
000090 09 01 04 00 05 01 01 00 07 01 00 00 00 01 01 00
       9 1 4 0 5 1 1 0 7 1 0 0 0 1 1 0
0000a0 01 01 01 00 03 01 01 00 02 01 01 00 1f 01 01 00
       1 1 1 0 3 1 1 0 2 1 1 0 31 1 1 0
0000b0 10 40 00 00 00 00 00 00 11 40 00 00 00 00 00 00
       16 64 0 0 0 0 0 0 17 64 0 0 0 0 0 0
0000c0 12 40 00 00 00 00 00 00 13 40 00 00 00 00 00 00
       18 64 0 0 0 0 0 0 19 64 0 0 0 0 0 0
0000d0 1b 01 2f 00 1c 01 2f 00 1a 01 0c 00 12 01 2f 00
       27 1 47 0 28 1 47 0 26 1 12 0 18 1 47 0
0000e0 11 01 0c 00 13 01 07 00 16 40 00 00 d0 00 00 00
       17 1 12 0 19 1 7 0 22 64 0 0 208 0 0 0
0000f0 15 40 00 00 d0 00 00 00 14 40 00 00 10 00 00 00
       21 64 0 0 208 0 0 0 20 64 0 0 16 0 0 0

main_split_1_flash u1 [6016]
000000 00 00 00 00 00 00 00 00 00 00 00 00 00 00 00 00
       0 0 0 0 0 0 0 0 0 0 0 0 0 0 0 0
000010 00 00 00 00 00 00 00 00 00 00 00 00 00 00 00 00
       0 0 0 0 0 0 0 0 0 0 0 0 0 0 0 0
000020 00 00 00 00 00 00 00 00 00 00 00 00 00 00 00 00
       0 0 0 0 0 0 0 0 0 0 0 0 0 0 0 0
000030 00 00 00 00 00 00 00 00 00 00 00 00 00 00 00 00
       0 0 0 0 0 0 0 0 0 0 0 0 0 0 0 0
000040 00 00 00 00 00 00 00 00 00 00 00 00 00 00 00 00
       0 0 0 0 0 0 0 0 0 0 0 0 0 0 0 0
000050 00 00 00 00 00 00 00 00 00 00 00 00 00 00 00 00
       0 0 0 0 0 0 0 0 0 0 0 0 0 0 0 0
000060 00 00 00 00 00 00 00 00 00 00 00 00 00 00 00 00
       0 0 0 0 0 0 0 0 0 0 0 0 0 0 0 0
000070 00 00 00 00 00 00 00 00 00 00 00 00 00 00 00 00
       0 0 0 0 0 0 0 0 0 0 0 0 0 0 0 0
000080 00 00 00 00 00 00 00 00 00 00 00 00 00 00 00 00
       0 0 0 0 0 0 0 0 0 0 0 0 0 0 0 0
000090 00 00 00 00 00 00 00 00 00 00 00 00 00 00 00 00
       0 0 0 0 0 0 0 0 0 0 0 0 0 0 0 0
0000a0 00 00 00 00 00 00 00 00 00 00 00 00 00 00 00 00
       0 0 0 0 0 0 0 0 0 0 0 0 0 0 0 0
0000b0 00 00 00 00 00 00 00 00 00 00 00 00 00 00 00 00
       0 0 0 0 0 0 0 0 0 0 0 0 0 0 0 0
0000c0 00 00 00 00 00 00 00 00 00 00 00 00 00 00 00 00
       0 0 0 0 0 0 0 0 0 0 0 0 0 0 0 0
0000d0 00 00 00 00 00 00 00 00 00 00 00 00 00 00 00 00
       0 0 0 0 0 0 0 0 0 0 0 0 0 0 0 0
0000e0 00 00 00 00 00 00 00 00 00 00 00 00 00 00 00 00
       0 0 0 0 0 0 0 0 0 0 0 0 0 0 0 0
0000f0 00 00 00 00 00 00 00 00 00 00 00 00 00 00 00 00
       0 0 0 0 0 0 0 0 0 0 0 0 0 0 0 0
